…
nChannels = [np.load(f"runs/nChannels{x}.npy", allow_pickle=True) for x in runPostfixes]
filterSizes = [np.load(f"runs/filterSizes{x}.npy", allow_pickle=True) for x in runPostfixes]
fully_connected = [np.load(f"runs/fully_connected{x}.npy", allow_pickle=True) for x in runPostfixes]
strides = [np.load(f"runs/strides{x}.npy", allow_pickle=True) for x in runPostfixes]
for x in [Animal10(nChannels[ii], filterSizes[ii], fully_connected[ii], strides=strides[ii]) for ii in range(len(runPostfixes))]:
    print(x)
#+end_src

#+RESULTS:
#+begin_example
Animal10(
  (multiFilters): ModuleList(
    (0): MultiFilterLayer(
      (norm): BatchNorm2d(48, eps=1e-05, momentum=0.1, affine=True, track_running_stats=True)
      (nonlin): ReLU()
      (conv1): Conv2d(3, 16, kernel_size=(3, 3), stride=(1, 1), padding=same)
      (conv2): Conv2d(3, 16, kernel_size=(5, 5), stride=(1, 1), padding=same)
      (conv3): Conv2d(3, 16, kernel_size=(7, 7), stride=(1, 1), padding=same)
      (conv_next): Conv2d(48, 64, kernel_size=(1, 1), stride=(2, 2))
    )
    (1): MultiFilterLayer(
      (norm): BatchNorm2d(48, eps=1e-05, momentum=0.1, affine=True, track_running_stats=True)
      (nonlin): ReLU()
      (conv1): Conv2d(64, 16, kernel_size=(3, 3), stride=(1, 1), padding=same)
      (conv2): Conv2d(64, 16, kernel_size=(5, 5), stride=(1, 1), padding=same)
      (conv3): Conv2d(64, 16, kernel_size=(5, 5), stride=(1, 1), padding=same)
      (conv_next): Conv2d(48, 64, kernel_size=(1, 1), stride=(4, 4))
    )
    (2): MultiFilterLayer(
      (norm): BatchNorm2d(48, eps=1e-05, momentum=0.1, affine=True, track_running_stats=True)
      (nonlin): ReLU()
      (conv1): Conv2d(64, 16, kernel_size=(3, 3), stride=(1, 1), padding=same)
      (conv2): Conv2d(64, 16, kernel_size=(3, 3), stride=(1, 1), padding=same)
      (conv3): Conv2d(64, 16, kernel_size=(5, 5), stride=(1, 1), padding=same)
      (conv_next): Conv2d(48, 128, kernel_size=(1, 1), stride=(4, 4))
    )
    (3): MultiFilterLayer(
      (norm): BatchNorm2d(96, eps=1e-05, momentum=0.1, affine=True, track_running_stats=True)
      (nonlin): ReLU()
      (conv1): Conv2d(128, 32, kernel_size=(3, 3), stride=(1, 1), padding=same)
      (conv2): Conv2d(128, 32, kernel_size=(3, 3), stride=(1, 1), padding=same)
      (conv3): Conv2d(128, 32, kernel_size=(3, 3), stride=(1, 1), padding=same)
      (conv_next): Conv2d(96, 256, kernel_size=(1, 1), stride=(4, 4))
    )
  )
  (adaptiveAve): AdaptiveAvgPool2d(output_size=(1, 1))
  (fullyConnected): FullyConnected(
    (layers): ModuleList(
      (0): Linear(in_features=256, out_features=256, bias=True)
      (1): Linear(in_features=256, out_features=256, bias=True)
      (2): Linear(in_features=256, out_features=256, bias=True)
      (3): Linear(in_features=256, out_features=10, bias=True)
    )
    (nonlin): ReLU()
  )
)
Animal10(
  (multiFilters): ModuleList(
    (0): MultiFilterLayer(
      (norm): BatchNorm2d(48, eps=1e-05, momentum=0.1, affine=True, track_running_stats=True)
      (nonlin): ReLU()
      (conv1): Conv2d(3, 16, kernel_size=(3, 3), stride=(1, 1), padding=same)
      (conv2): Conv2d(3, 16, kernel_size=(5, 5), stride=(1, 1), padding=same)
      (conv3): Conv2d(3, 16, kernel_size=(7, 7), stride=(1, 1), padding=same)
      (conv_next): Conv2d(48, 64, kernel_size=(1, 1), stride=(2, 2))
    )
    (1): MultiFilterLayer(
      (norm): BatchNorm2d(48, eps=1e-05, momentum=0.1, affine=True, track_running_stats=True)
      (nonlin): ReLU()
      (conv1): Conv2d(64, 16, kernel_size=(3, 3), stride=(1, 1), padding=same)
      (conv2): Conv2d(64, 16, kernel_size=(5, 5), stride=(1, 1), padding=same)
      (conv3): Conv2d(64, 16, kernel_size=(5, 5), stride=(1, 1), padding=same)
      (conv_next): Conv2d(48, 128, kernel_size=(1, 1), stride=(4, 4))
    )
    (2): MultiFilterLayer(
      (norm): BatchNorm2d(48, eps=1e-05, momentum=0.1, affine=True, track_running_stats=True)
      (nonlin): ReLU()
      (conv1): Conv2d(128, 16, kernel_size=(3, 3), stride=(1, 1), padding=same)
      (conv2): Conv2d(128, 16, kernel_size=(3, 3), stride=(1, 1), padding=same)
      (conv3): Conv2d(128, 16, kernel_size=(5, 5), stride=(1, 1), padding=same)
      (conv_next): Conv2d(48, 256, kernel_size=(1, 1), stride=(4, 4))
    )
    (3): MultiFilterLayer(
      (norm): BatchNorm2d(96, eps=1e-05, momentum=0.1, affine=True, track_running_stats=True)
      (nonlin): ReLU()
      (conv1): Conv2d(256, 32, kernel_size=(3, 3), stride=(1, 1), padding=same)
      (conv2): Conv2d(256, 32, kernel_size=(3, 3), stride=(1, 1), padding=same)
      (conv3): Conv2d(256, 32, kernel_size=(3, 3), stride=(1, 1), padding=same)
      (conv_next): Conv2d(96, 512, kernel_size=(1, 1), stride=(4, 4))
    )
  )
  (adaptiveAve): AdaptiveAvgPool2d(output_size=(1, 1))
  (fullyConnected): FullyConnected(
    (layers): ModuleList(
      (0): Linear(in_features=512, out_features=512, bias=True)
      (1): Linear(in_features=512, out_features=512, bias=True)
      (2): Linear(in_features=512, out_features=256, bias=True)
      (3): Linear(in_features=256, out_features=128, bias=True)
      (4): Linear(in_features=128, out_features=10, bias=True)
    )
    (nonlin): ReLU()
  )
)
Animal10(
  (multiFilters): ModuleList(
    (0): MultiFilterLayer(
      (norm): BatchNorm2d(48, eps=1e-05, momentum=0.1, affine=True, track_running_stats=True)
      (nonlin): ReLU()
      (conv1): Conv2d(3, 16, kernel_size=(3, 3), stride=(1, 1), padding=same)
      (conv2): Conv2d(3, 16, kernel_size=(5, 5), stride=(1, 1), padding=same)
      (conv3): Conv2d(3, 16, kernel_size=(7, 7), stride=(1, 1), padding=same)
      (conv_next): Conv2d(48, 64, kernel_size=(1, 1), stride=(2, 2))
    )
    (1): MultiFilterLayer(
      (norm): BatchNorm2d(48, eps=1e-05, momentum=0.1, affine=True, track_running_stats=True)
      (nonlin): ReLU()
      (conv1): Conv2d(64, 16, kernel_size=(3, 3), stride=(1, 1), padding=same)
      (conv2): Conv2d(64, 16, kernel_size=(5, 5), stride=(1, 1), padding=same)
      (conv3): Conv2d(64, 16, kernel_size=(5, 5), stride=(1, 1), padding=same)
      (conv_next): Conv2d(48, 128, kernel_size=(1, 1), stride=(2, 2))
    )
    (2): MultiFilterLayer(
      (norm): BatchNorm2d(48, eps=1e-05, momentum=0.1, affine=True, track_running_stats=True)
      (nonlin): ReLU()
      (conv1): Conv2d(128, 16, kernel_size=(3, 3), stride=(1, 1), padding=same)
      (conv2): Conv2d(128, 16, kernel_size=(3, 3), stride=(1, 1), padding=same)
      (conv3): Conv2d(128, 16, kernel_size=(5, 5), stride=(1, 1), padding=same)
      (conv_next): Conv2d(48, 256, kernel_size=(1, 1), stride=(4, 4))
    )
    (3): MultiFilterLayer(
      (norm): BatchNorm2d(96, eps=1e-05, momentum=0.1, affine=True, track_running_stats=True)
      (nonlin): ReLU()
      (conv1): Conv2d(256, 32, kernel_size=(3, 3), stride=(1, 1), padding=same)
      (conv2): Conv2d(256, 32, kernel_size=(3, 3), stride=(1, 1), padding=same)
      (conv3): Conv2d(256, 32, kernel_size=(3, 3), stride=(1, 1), padding=same)
      (conv_next): Conv2d(96, 512, kernel_size=(1, 1), stride=(4, 4))
    )
  )
  (adaptiveAve): AdaptiveAvgPool2d(output_size=(1, 1))
  (fullyConnected): FullyConnected(
    (layers): ModuleList(
      (0): Linear(in_features=512, out_features=256, bias=True)
      (1): Linear(in_features=256, out_features=256, bias=True)
      (2): Linear(in_features=256, out_features=256, bias=True)
      (3): Linear(in_features=256, out_features=10, bias=True)
    )
    (nonlin): ReLU()
  )
)
Animal10(
  (multiFilters): ModuleList(
    (0): MultiFilterLayer(
      (norm): BatchNorm2d(64, eps=1e-05, momentum=0.1, affine=True, track_running_stats=True)
      (nonlin): ReLU()
      (conv1): Conv2d(3, 32, kernel_size=(3, 3), stride=(1, 1), padding=same)
      (conv2): Conv2d(3, 16, kernel_size=(5, 5), stride=(1, 1), padding=same)
      (conv3): Conv2d(3, 16, kernel_size=(7, 7), stride=(1, 1), padding=same)
      (conv_next): Conv2d(64, 64, kernel_size=(1, 1), stride=(2, 2))
    )
    (1): MultiFilterLayer(
      (norm): BatchNorm2d(128, eps=1e-05, momentum=0.1, affine=True, track_running_stats=True)
      (nonlin): ReLU()
      (conv1): Conv2d(64, 64, kernel_size=(3, 3), stride=(1, 1), padding=same)
      (conv2): Conv2d(64, 32, kernel_size=(5, 5), stride=(1, 1), padding=same)
      (conv3): Conv2d(64, 32, kernel_size=(7, 7), stride=(1, 1), padding=same)
      (conv_next): Conv2d(128, 128, kernel_size=(1, 1), stride=(4, 4))
    )
    (2): MultiFilterLayer(
      (norm): BatchNorm2d(208, eps=1e-05, momentum=0.1, affine=True, track_running_stats=True)
      (nonlin): ReLU()
      (conv1): Conv2d(128, 128, kernel_size=(3, 3), stride=(1, 1), padding=same)
      (conv2): Conv2d(128, 16, kernel_size=(3, 3), stride=(1, 1), padding=same)
      (conv3): Conv2d(128, 64, kernel_size=(5, 5), stride=(1, 1), padding=same)
      (conv_next): Conv2d(208, 256, kernel_size=(1, 1), stride=(4, 4))
    )
    (3): MultiFilterLayer(
      (norm): BatchNorm2d(512, eps=1e-05, momentum=0.1, affine=True, track_running_stats=True)
      (nonlin): ReLU()
      (conv1): Conv2d(256, 256, kernel_size=(3, 3), stride=(1, 1), padding=same)
      (conv2): Conv2d(256, 128, kernel_size=(3, 3), stride=(1, 1), padding=same)
      (conv3): Conv2d(256, 128, kernel_size=(3, 3), stride=(1, 1), padding=same)
      (conv_next): Conv2d(512, 512, kernel_size=(1, 1), stride=(4, 4))
    )
  )
  (adaptiveAve): AdaptiveAvgPool2d(output_size=(1, 1))
  (fullyConnected): FullyConnected(
    (layers): ModuleList(
      (0): Linear(in_features=512, out_features=512, bias=True)
      (1): Linear(in_features=512, out_features=512, bias=True)
      (2): Linear(in_features=512, out_features=256, bias=True)
      (3): Linear(in_features=256, out_features=128, bias=True)
      (4): Linear(in_features=128, out_features=10, bias=True)
    )
    (nonlin): ReLU()
  )
)
#+end_example

Lets plot the loss, for each run along with the smoothed version.
#+begin_src jupyter-python
from scipy.signal import savgol_filter
import pandas as pd
max_len = max([len(x) for x in loss_records])
epoch = np.array(range(max_len)) * 100 /len(train_loader)
smoothed = [savgol_filter(x, 101, 3) for x in loss_records]
…
